test/TFLfiles/mnist.tflite (tflite, 408056 bytes, 2 tensors)

sequential/dense/MatMul1 f4 [128, 784]
0	0xbd83d4ba	-0.06437059
1	0x3a1e7880	0.00060451776
2	0x3a09f580	0.00052627176
3	0x3d53e106	0.05172827
4	0xbc52ee10	-0.012874141
5	0x3d483716	0.04888066
6	0xbb21af80	-0.0024671257
7	0xbd879a64	-0.066212445
8	0x3d3c02ea	0.045901217
9	0x3b6cf560	0.0036156997
10	0xbc8282ac	-0.01593145
11	0x3c264690	0.010148659
12	0x3d7498b6	0.05971595
13	0xbd8762c7	-0.06610637
14	0xbd9073e7	-0.070533566
15	0x3d7cf236	0.061754428
16	0xbd86aaf9	-0.06575579
17	0xbda5892c	-0.08082804
18	0xbbb67db0	-0.0055691823
19	0x3da43acd	0.08019028
20	0x3d198f42	0.037490137
21	0xbd108bf6	-0.035289727
22	0xbc6d87a8	-0.014497675
23	0xbcb7a844	-0.022419102
24	0x3d801687	0.06254297
25	0x3d6275a6	0.05528798
26	0x3d85ff29	0.065428086
27	0xbd9a3e34	-0.075313956
28	0x3c2ad600	0.010426998
29	0x3d9f9349	0.07791764
30	0x3c987400	0.01861
31	0x3cc0f4a0	0.023554146
32	0xbc7c52a0	-0.015400559
33	0xbcd4d03c	-0.0259782
34	0x3d3cf9d6	0.0461367
35	0x3d2b0484	0.041752353
36	0xbd8e0724	-0.06934956
37	0xbbcb5950	-0.0062057152
38	0xbb3b01c0	-0.0028534979
39	0xba94c7c0	-0.0011351034
40	0xbd483e84	-0.048887745
41	0xbd9223a0	-0.07135701
42	0x3cc1d05c	0.023658924
43	0x3c1e1ec8	0.0096508935
44	0x3c9f0f00	0.019416332
45	0xbcca991c	-0.024731211
46	0x3d1c7420	0.038196683
47	0x3b8bc7a0	0.0042657405
48	0x3bdeb180	0.006796062
49	0xbd487d12	-0.0489474
50	0xbd9756a2	-0.07389571
51	0xbd80e150	-0.06292975
52	0x3c318270	0.010834321
53	0x3d4787c2	0.048713453
54	0x3ca33008	0.019920364
55	0xba044680	-0.0005045906
56	0x38d9b400	0.00010380894
57	0xbb3b3ae0	-0.0028569028
58	0xbc198608	-0.009370334
59	0xbd36d829	-0.04463974
60	0x3d589ee6	0.052885912
61	0x3d9bfe3f	0.07616853
62	0x39ffb600	0.0004877299
63	0xbd894028	-0.0670169
64	0x3d899003	0.06716921
65	0xbc915248	-0.01773943
66	0x3cd3ac20	0.025838912
67	0x3c8bbe40	0.017058492
68	0xbbcd2e00	-0.006261587
69	0x3d944627	0.07239943
70	0x3d10091c	0.035164937
71	0xbd4e61a6	-0.050386094
72	0x3bb4e150	0.0055200234
73	0xbd8b3535	-0.06797258
74	0x3d004bf0	0.03132242
75	0xbcffe506	-0.031237137
76	0x3d88b6b3	0.06675472
77	0x3d0d68aa	0.034523644
78	0xbda60349	-0.08106095
79	0x3ce68d38	0.02814351
80	0xbd5b62fb	-0.053561192
81	0x3cc27e40	0.023741841
82	0xbd52f846	-0.051506303
83	0xbd44e0fa	-0.048066117
84	0x3d8e6797	0.06953352
85	0xbd8c82fd	-0.068609215
86	0xbd8eaa1b	-0.06966039
87	0xbd06b668	-0.0328888
88	0xbd167cb0	-0.036740005
89	0xbbfeee30	-0.007779859
90	0x3d47ed32	0.04881019
91	0xbceef9fe	-0.02917194
92	0xbd8bac90	-0.06820023
93	0xbc3bb290	-0.011456147
94	0x3cc10540	0.023562074
95	0x3c81acd4	0.015829481
96	0xbd837386	-0.06418519
97	0x3c374368	0.0111855045
98	0x3b562700	0.0032677054
99	0xbc9b5eb4	-0.018966056
100	0x3d8051e1	0.06265617
101	0xbc7d26f8	-0.015451185
102	0x3bf696d0	0.0075253025
103	0x3d0c3b1c	0.03423606
104	0xbcb75044	-0.02237714
105	0x3c373168	0.011181213
106	0xbd900d3a	-0.07033773
107	0xbd043bfb	-0.032283764
108	0xbd99a004	-0.07501224
109	0xbc5d2a08	-0.013498791
110	0xbd122588	-0.035680324
111	0xbd361ff5	-0.04446407
112	0x3d7aad82	0.061200626
113	0x3ca0b258	0.01961629
114	0x3d1e41de	0.038637035
115	0x3c948f84	0.01813484
116	0xbd3c7f7f	-0.046020027
117	0x3d2897f6	0.041160546
118	0xbd02e45b	-0.031956058
119	0x3cc48ae0	0.023992002
120	0x3d7b01de	0.061281078
121	0xbb34c200	-0.0027581453
122	0xbd9297bf	-0.071578495
123	0x3c655370	0.013996944
124	0x3d0be5be	0.034154646
125	0xbd18f7b4	-0.037345603
126	0xbd9c848c	-0.07642469
127	0xbd529a10	-0.051416457
128	0xbd9c13cb	-0.07620963
129	0x3d651866	0.05593147
130	0x3d4bffa2	0.049804337
131	0x3c52bc98	0.012862347
132	0xbd53512c	-0.051591083
133	0x3d958879	0.07301421
134	0xbce52a86	-0.027974378
135	0xbad050c0	-0.0015893206
136	0xbd11b2d7	-0.035570946
137	0x3d546c02	0.051860817
138	0xbbef11a0	-0.0072958022
139	0x3ce31454	0.027719654
140	0x3a87da40	0.0010364726
141	0xbd229279	-0.03969047
142	0x3c67d368	0.014149524
143	0x3d241bb2	0.040065475
144	0xbcd8436a	-0.026399333
145	0xbcc760a8	-0.024338081
146	0x3c249cd0	0.010047153
147	0xbd6303a9	-0.055423412
148	0xbd7ee5cf	-0.06223088
149	0x3ca92cb4	0.020651199
150	0x3d5c1036	0.053726397
151	0xbd9f1843	-0.077682994
152	0x3da10c83	0.078637145
153	0xbc09b2a0	-0.008404404
154	0x3d6225d6	0.055211864
155	0xbd29302a	-0.0413057
156	0x3d9b62b3	0.07587185
157	0x3d0d3336	0.034472667
158	0xbd8383a0	-0.0642159
159	0x3d466baa	0.04844252
160	0x3cfd0000	0.030883789
161	0xbca9ea4c	-0.020741604
162	0x3d98fc0f	0.07469951
163	0xbc5bfc60	-0.01342687
164	0xbd27a513	-0.04092891
165	0x3b8d2630	0.004307531
166	0x3d1cd54c	0.038289353
167	0xbd6cf80e	-0.05785375
168	0x3d90253d	0.07038353
169	0x3d8dc81f	0.06922936
170	0xbc9e9e4a	-0.019362587
171	0xbbffe0e0	-0.0078087896
172	0xbd64418e	-0.05572658
173	0xbd8902d6	-0.06689994
174	0xbd8ea5fd	-0.069652535
175	0xbce156d4	-0.027507223
176	0xbbbd20c0	-0.0057717264
177	0x3c950590	0.018191129
178	0xbd9125a8	-0.070872605
179	0xbda22e43	-0.0791898
180	0xbda35d6c	-0.07976803
181	0xbc845af0	-0.016156644
182	0x3cb30970	0.021855086
183	0xbce727c6	-0.028217208
184	0x3d62a4e2	0.055333026
185	0xbd247f86	-0.04016068
186	0xbcf4112a	-0.02979334
187	0xbcc6acc0	-0.024252295
188	0x3cf15bfc	0.029462807
189	0x3d5a902e	0.053360157
190	0xbd8062e9	-0.062688656
191	0xbd996be2	-0.0749128
192	0x3b22af60	0.002482377
193	0x3b41b680	0.0029558241
194	0xbd8b40e6	-0.06799488
195	0xbd9537d4	-0.07286039
196	0xbd07cb04	-0.033152595
197	0xbd6750a3	-0.056473386
198	0x3cf51c18	0.029920623
199	0xbcc09918	-0.0235105
200	0xbc8c45c8	-0.017123118
201	0xbd4940f9	-0.04913423
202	0x3da34939	0.079729505
203	0x3d36a6aa	0.044592537
204	0xbd7d6b54	-0.061869934
205	0x3c1f3cf0	0.0097191185
206	0x3ca6db68	0.020368293
207	0xbda1e4f5	-0.07904998
208	0x3d8e6287	0.06952386
209	0x3cd80cdc	0.02637332
210	0x3b834fe0	0.0040073246
211	0xbd2083fc	-0.03918837
212	0xbd1edf33	-0.038787078
213	0xbc6ecbd8	-0.014574967
214	0xbd08b6aa	-0.033377327
215	0x3cebf6d4	0.02880422
216	0xbd166282	-0.036715038
217	0xbd21f857	-0.039543476
218	0xbc146c00	-0.009058952
219	0xbd0a97a6	-0.03383603
220	0xbd0a79bd	-0.033807505
221	0xbcbf853c	-0.02337896
222	0xbc14b0f0	-0.009075388
223	0x3d9494b1	0.07254923
224	0xbd66f64c	-0.05638723
225	0xbd962ad3	-0.07332387
226	0xbc489d48	-0.01224453
227	0xbc8514e4	-0.016245313
228	0x3bcf1450	0.00631956
229	0xbd1dc1cb	-0.038514894
230	0x3d1d8aec	0.038462564
231	0x3d906cbf	0.07051992
232	0x3d2200f0	0.039551675
233	0xbc9b0124	-0.018921442
234	0x3c8a9168	0.016915038
235	0x3d297104	0.041367546
236	0x3d5e2a7a	0.054239728
237	0x3d317a16	0.04332932
238	0xbd92e68b	-0.07172879
239	0x3d09115e	0.03346383
240	0xbd73e07a	-0.05954025
241	0x3d57571a	0.0525733
242	0xbd8df8ce	-0.06932221
243	0xbd6f2526	-0.058385037
244	0x3d9c54dd	0.07633374
245	0x3d8ad701	0.0677929
246	0x3d409ac6	0.047022603
247	0x3d7389ba	0.05945752
248	0xbd79c359	-0.060977314
249	0x3cff34bc	0.031153075
250	0xbd8f547a	-0.069985345
251	0xbce68418	-0.02813916
252	0xbc59c8d0	-0.013292506
253	0xbd82e4be	-0.06391285
254	0xbc5f7488	-0.013638623
255	0xbb4997e0	-0.003076069

sequential/dense_1/MatMul f4 [10, 128]
0	0xbe2e4564	-0.17018658
1	0x3dff7612	0.12473692
2	0xbda9f2d2	-0.082982674
3	0x3e324aa9	0.17411293
4	0x3c1b1770	0.009466037
5	0xbc912f10	-0.017722636
6	0x3d41c84c	0.04731016
7	0xbd8d33f4	-0.06894675
8	0xbc26ab10	-0.01017262
9	0x3e004f39	0.12530221
10	0xbe53a59f	-0.20668648
11	0xbb464140	-0.0030251294
12	0x3e2af1df	0.16693829
13	0x3da6422a	0.081180885
14	0xbbcde7a0	-0.0062837154
15	0xbd4a3ec0	-0.04937625
16	0x3e543e19	0.20726813
17	0xbe3acff4	-0.1824339
18	0xbe38cd78	-0.1804713
19	0x3e2d6a01	0.16934969
20	0x3dac5022	0.084137216
21	0xbdc548f4	-0.09633055
22	0x3d801d56	0.062555954
23	0x3d9da1f2	0.07696904
24	0xbdfab1e5	-0.12240962
25	0x3e0c1ecf	0.13683628
26	0xbdc82339	-0.09772343
27	0xbd09b290	-0.033617556
28	0xbe4f432a	-0.20240465
29	0x3d96b57a	0.07358833
30	0xbd03a0dc	-0.03213583
31	0x3e2913ab	0.16511409
32	0xbdc75593	-0.09733119
33	0xbe129783	-0.1431561
34	0xbcef98d0	-0.029247671
35	0xbe443c16	-0.19163546
36	0x3c867758	0.01641433
37	0x3d52b00c	0.051437423
38	0x3e38ca1f	0.18045853
39	0xbd81ccdc	-0.06337902
40	0x3d61e914	0.05515392
41	0xbc9dc160	-0.019257247
42	0xbd07dfcc	-0.033172414
43	0x3e30d02b	0.1726691
44	0x3e37c7b1	0.1794727
45	0xbe262f67	-0.1622902
46	0x3e17db55	0.14829762
47	0xbc46bec0	-0.012130439
48	0x3e07e947	0.13272582
49	0xbdd0e986	-0.10200791
50	0x3dcab47e	0.098977074
51	0x3e1385c1	0.14406492
52	0x3d96ca16	0.073627636
53	0xbdd9b426	-0.10630064
54	0xbd04f8c4	-0.032463804
55	0xb9d6a400	-0.0004093945
56	0x3cb2c4f0	0.021822423
57	0x3e2bf7cb	0.16793744
58	0x3c795a60	0.015219301
59	0xbe512904	-0.20425802
60	0x3e331339	0.17487802
61	0xbdad607b	-0.08465668
62	0xbe44daf3	-0.19224147
63	0x3e162ac3	0.1466475
64	0xbe4aee31	-0.19817425
65	0x3dd28836	0.102798864
66	0x3e377885	0.17917068
67	0xbe348624	-0.17629296
68	0xbd146b98	-0.036235422
69	0x3d848cba	0.06472154
70	0x3e1a4007	0.15063487
71	0x3ddda686	0.108227775
72	0xbe0df362	-0.13862374
73	0xbdec3f29	-0.11535484
74	0x3e439f4b	0.19103734
75	0xbdad4b1c	-0.084615916
76	0xbdae4dfb	-0.08510967
77	0x3dd50eb6	0.104031965
78	0xbd8733ba	-0.06601663
79	0x3e252395	0.16126855
80	0x3e01b3fd	0.12666316
81	0x3da0609e	0.07830928
82	0x3e1dcb8d	0.1540968
83	0xbda50cfe	-0.08059119
84	0xbe41a3fe	-0.18910214
85	0x3c50cba0	0.0127438605
86	0x3e0a56cb	0.13509671
87	0xbd2a8e4c	-0.04163961
88	0xbe0d94f7	-0.13826357
89	0xbe17f59c	-0.14839786
90	0x3e307089	0.17230429
91	0x3e475257	0.19465004
92	0xbd931db8	-0.07183403
93	0xbe0d2ba7	-0.13786183
94	0xbe1dcb14	-0.154095
95	0xbdc67154	-0.096895844
96	0x3e30458d	0.17214032
97	0xbd8cbcf2	-0.06871976
98	0x3e44b0fb	0.19208138
99	0x3dfc317a	0.123141244
100	0x3dde4a16	0.108539745
101	0xbd6442d0	-0.05572778
102	0xbdef7375	-0.116919436
103	0xbe3dd1fc	-0.18537134
104	0xbc1b1630	-0.009465739
105	0xbcf86a80	-0.03032422
106	0x3e4af06b	0.19818275
107	0xbe3a85d7	-0.18215118
108	0x3dd92eae	0.106046066
109	0xbc459610	-0.0120597035
110	0x3da08fb2	0.07839908
111	0x3d2332d4	0.039843395
112	0x3dfbdeda	0.12298365
113	0xbe060063	-0.13086085
114	0xbe19ae62	-0.15007928
115	0xbd050ed0	-0.03248483
116	0x3d9ba982	0.076006904
117	0xba169900	-0.00057448447
118	0xbdd8d254	-0.10586992
119	0x3e371c6f	0.1788194
120	0xbe01f2dc	-0.126903
121	0x3e097df3	0.13426952
122	0x3d33c47c	0.043888554
123	0xbb40cf80	-0.0029420555
124	0x3cc87118	0.02446799
125	0x3ce88e00	0.028388023
126	0xbe3000d2	-0.17187813
127	0xbd610f08	-0.054945976
128	0xbe3e9177	-0.18610178
129	0x3e127461	0.14302208
130	0xbdaa5d3e	-0.08318566
131	0x3d933b26	0.07189016
132	0xbd942854	-0.072342545
133	0xbdf8dbe0	-0.12151313
134	0xbd21a6dc	-0.03946577
135	0xbe3d477e	-0.18484303
136	0x3d5df25c	0.05418621
137	0xbe41a7f8	-0.18911731
138	0x3e40294f	0.18765758
139	0x3e17f87d	0.14840885
140	0xbd2f43d0	-0.04278928
141	0x3e2bc151	0.16772963
142	0xbda49116	-0.080354854
143	0x3d0c4fbc	0.034255728
144	0xbd9a2156	-0.075258896
145	0xbc8defd0	-0.017326266
146	0x3d060678	0.032721013
147	0xbe219e1e	-0.15782973
148	0x3dee70aa	0.11642583
149	0x3e04d85f	0.12973164
150	0xbe4a21ea	-0.197395
151	0x3d9e930a	0.07742889
152	0xbd9f61c2	-0.07782318
153	0xbe1fe8a1	-0.15616085
154	0xbd8af4ec	-0.067849964
155	0xbd873416	-0.066017315
156	0xbda47484	-0.08030036
157	0xbd027840	-0.03185296
158	0x3e49bf77	0.19701944
159	0x3da23e46	0.07922034
160	0x3e341fe5	0.17590292
161	0xbdf39421	-0.11893488
162	0x3e3102d1	0.1728623
163	0xbe1db132	-0.15399626
164	0xbd8239e2	-0.063586965
165	0xbc8d5748	-0.017253533
166	0x3d1b2960	0.037881255
167	0x3e1b02d5	0.15137799
168	0xbc6d1050	-0.014469221
169	0x3e0d1b3b	0.13779919
170	0x3de6cffa	0.11270137
171	0xbd56afd0	-0.05241376
172	0x3d998266	0.07495575
173	0x3e2dd05d	0.16974016
174	0x3c4d3450	0.012524679
175	0xbcbacd38	-0.022802934
176	0x3e27a105	0.16370018
177	0x3e536e67	0.20647584
178	0x3cc1bfa0	0.023650944
179	0x3e4a7e07	0.19774638
180	0x3e29c9c1	0.1658087
181	0xbe46dee4	-0.19420964
182	0xbce44280	-0.02786374
183	0xbd7dff3c	-0.06201099
184	0xbe05ff3a	-0.13085642
185	0x3daea762	0.085280195
186	0x3cfe7fb0	0.031066746
187	0xbda5b15c	-0.08090469
188	0xbdb62b58	-0.08894986
189	0xbe2f7095	-0.1713279
190	0xbdc1d0c2	-0.094636455
191	0x3a91b180	0.0011115521
192	0xbe317722	-0.17330602
193	0x3d24f1ac	0.04026954
194	0x3dc1556e	0.094401225
195	0xbda18b8c	-0.078879446
196	0x3dc68c6e	0.096947536
197	0x3cec2c68	0.028829768
198	0x3cac7560	0.021052063
199	0xbe076275	-0.13221152
200	0x3e45d6b1	0.1932018
201	0xbe3c649d	-0.18397756
202	0xbdf93608	-0.12168509
203	0xbe1687d9	-0.1470026
204	0x3bbb5c20	0.0057177693
205	0x3e0bba3b	0.1364526
206	0xbdceb591	-0.10093225
207	0xbe432b4f	-0.1905949
208	0x3c8a9c78	0.016920313
209	0xbdb2c1e0	-0.08728385
210	0xbe17800c	-0.1479494
211	0xbcf999e0	-0.030468881
212	0xbdf01af9	-0.117238946
213	0xbd857a96	-0.06517522
214	0xbe24b3b6	-0.1608418
215	0x3e4105bf	0.18849848
216	0xbe075a35	-0.13218005
217	0xbcb05638	-0.021525487
218	0x3ca77ce8	0.020445302
219	0xbcd65498	-0.026163384
220	0x3d11ce88	0.035597354
221	0xbe41b355	-0.18916066
222	0x3c761960	0.015020698
223	0x3d163a3c	0.03667663
224	0xbd154e00	-0.03645134
225	0x3e4cf66d	0.20015879
226	0xbe0876d1	-0.13326575
227	0x3d99b122	0.075044885
228	0x3e1b1849	0.15145983
229	0x3da34f0a	0.0797406
230	0xbe3f0977	-0.18655954
231	0x3e5099f5	0.2037123
232	0xbdf2a680	-0.118481636
233	0x3dd6032a	0.10449822
234	0xbd891fde	-0.06695531
235	0xbe34fdf2	-0.17674997
236	0x3e3d3463	0.18477015
237	0xbc4b2090	-0.0123979
238	0x3d24c498	0.04022655
239	0xbc8b8a28	-0.017033651
240	0x3c9d2ba8	0.019185856
241	0xbe1813a9	-0.1485125
242	0x3e543a7d	0.20725437
243	0x3e4c4a51	0.19950224
244	0x3e27902b	0.1636359
245	0x3d60eccc	0.054913327
246	0x3cfb53a0	0.030679524
247	0x3e1a7919	0.15085258
248	0x3e202cdb	0.15642111
249	0xbe3e5bab	-0.18589656
250	0x3e27411f	0.16333435
251	0xbe2be9f3	-0.16788463
252	0x3e243e8b	0.16039483
253	0xbdc6c6f3	-0.09705915
254	0x3e2d8a93	0.16947393
255	0xbe18c3db	-0.14918463
